…
Saved 3761 sentences (dropped 0 due to length/unk filter)
42068 42068
Saved 42068 sentences (dropped 0 due to length/unk filter)
Max sent length (before dropping): 84
kujain@dsmlp-jupyter-kujain:~/cyclic-vae/language_model$[66C  [41;58Hpython train_text_bl_ptb.py --model vae --log_dir logs/ptb/vae_bl
[2020-05-22 00:57:35.970627 PDT] Train data: 1359 batches
[2020-05-22 00:57:35.970941 PDT] Val data: 142 batches
[2020-05-22 00:57:35.971057 PDT] Test data: 155 batches
[2020-05-22 00:57:35.971173 PDT] Word vocab size: 10002
[2020-05-22 00:57:36.275824 PDT] model architecture
RNNVAE(
  (enc_word_vecs): Embedding(10002, 300)
  (latent_linear_mean): Linear(in_features=256, out_features=32, bias=True)
  (latent_linear_logvar): Linear(in_features=256, out_features=32, bias=True)
  (enc_rnn): LSTM(300, 256, batch_first=True)
  (enc): ModuleList(
    (0): Embedding(10002, 300)
    (1): LSTM(300, 256, batch_first=True)
    (2): Linear(in_features=256, out_features=32, bias=True)
    (3): Linear(in_features=256, out_features=32, bias=True)
  )
  (dec_word_vecs): Embedding(10002, 256)
  (dec_rnn): LSTM(288, 256, batch_first=True)
  (dec_linear): Sequential(
    (0): Dropout(p=0.5, inplace=False)
    (1): Linear(in_features=256, out_features=10002, bias=True)
    (2): LogSoftmax()
  )
  (dropout): Dropout(p=0.5, inplace=False)
  (dec): ModuleList(
    (0): Embedding(10002, 256)
    (1): LSTM(288, 256, batch_first=True)
    (2): Sequential(
      (0): Dropout(p=0.5, inplace=False)
      (1): Linear(in_features=256, out_features=10002, bias=True)
      (2): LogSoftmax()
    )
    (3): Linear(in_features=32, out_features=256, bias=True)
  )
  (latent_hidden_linear): Linear(in_features=32, out_features=256, bias=True)
)
[2020-05-22 00:57:40.646227 PDT] Starting epoch 1
/home/kujain/.local/lib/python3.7/site-packages/torch/nn/modules/container.py:100: UserWarning: Implicit dimension choice for log_softmax has been deprecated. Change the call to include dim=X as an argument.
  input = module(input)
Traceback (most recent call last):
  File "train_text_bl_ptb.py", line 389, in <module>
…
